chatbot/model.pth (torch, 7135 bytes, 6 tensors)

l1.weight f4 [8, 91]
0	0xbe743d52	-0.23851517
1	0x3ec9f8df	0.39447686
2	0x3e4b1af9	0.19834508
3	0x3e29071c	0.16506618
4	0x3ef2dd03	0.47434244
5	0x3e938a4c	0.2881645
6	0xbf07180d	-0.52771074
7	0x3ed10227	0.40821955
8	0xbd8ce505	-0.068796195
9	0xbe6a9887	-0.22909747
10	0x3f016edd	0.5055979
11	0xbf11e855	-0.56995136
12	0x3f436ea9	0.7634073
13	0xbe5120d8	-0.20422685
14	0xbe02f2c6	-0.12787923
15	0xbf12ad5f	-0.57295793
16	0xbe61f8a7	-0.2206751
17	0x3edd896d	0.4326891
18	0x3f0d6399	0.552301
19	0xbe5ab136	-0.21356663
20	0xbd90759d	-0.07053683
21	0xbe502bc1	-0.20329191
22	0x3efff237	0.49989483
23	0x3f3e6d72	0.7438575
24	0x3cb3c015	0.021942178
25	0xbd647fd3	-0.055785965
26	0x3e0f69d1	0.1400521
27	0x3f0e8541	0.5567208
28	0x3e159de1	0.14611007
29	0x3f096624	0.5367148
30	0x3f0ad4a2	0.542307
31	0xbec976c0	-0.39348412
32	0x3eaa719e	0.33289808
33	0xbccb898c	-0.02484586
34	0x3edee33a	0.43532735
35	0x3d97f17c	0.07419106
36	0xbed0b58a	-0.40763503
37	0xbee6293a	-0.44953328
38	0xbe3e2ce9	-0.1857182
39	0xbdd0af7f	-0.10189723
40	0xbe7297f3	-0.23690777
41	0xbf4339f4	-0.76260304
42	0xbeef9f0b	-0.46801028
43	0x3eb94f65	0.36193386
44	0xbeeab965	-0.4584457
45	0xbf142530	-0.57869244
46	0x3e060fa0	0.13091898
47	0x3f08fd34	0.5351136
48	0x3b82d5de	0.00399278
49	0xbed2d1c6	-0.4117567
50	0x3eb561d2	0.35426193
51	0x3d723bd7	0.0591391
52	0x3f0bc006	0.5458988
53	0xbdbcf9f7	-0.092273645
54	0x3eb6b929	0.3568814
55	0x3e84ddf5	0.2595059
56	0x3f2ba47e	0.6704787
57	0x3f04aea0	0.51828957
58	0x3f435f31	0.76317126
59	0xbe063017	-0.13104282
60	0xbcae7be9	-0.02129932
61	0xbe892f3f	-0.26793858
62	0xbd5c2d2a	-0.05375401
63	0xbd8fea09	-0.070270605
64	0xbe767183	-0.24066739
65	0x3f64ec2d	0.89422876
66	0xbdab8c75	-0.083763994
67	0xbeb59736	-0.35466927
68	0xbe6aee58	-0.22942483
69	0x3ec7f160	0.39051342
70	0x3f1e15ea	0.6175219
71	0xbf0c08dc	-0.5470102
72	0xbf5318c6	-0.82459676
73	0xbeed53b4	-0.46352923
74	0xbeb59182	-0.35462576
75	0x3ea61b9d	0.32442942
76	0x3d48237c	0.048861966
77	0xbf03f876	-0.51550996
78	0x3ec54511	0.38529256
79	0xbeb46f4d	-0.35241166
80	0x3f11ad0a	0.5690466
81	0xbed23928	-0.41059232
82	0x3e9047ba	0.28179723
83	0x3edf1126	0.4356777
84	0x3e8bb080	0.27283096
85	0x3eb77164	0.35828698
86	0xbe980889	-0.29694012
87	0xbc663ac8	-0.0140521005
88	0x3e8fc4fb	0.28079972
89	0xbe49d05c	-0.19708389
90	0x3e75b020	0.23992968
91	0xbd9bbd1e	-0.076044306
92	0x3f201860	0.62537193
93	0x3f0e716c	0.5564182
94	0x3ef2dc79	0.47433832
95	0xbe842d3d	-0.25815764
96	0xbea9a1ef	-0.33131358
97	0x3f2d6593	0.67733115
98	0x3e4a6bcb	0.19767682
99	0x3e2db02d	0.16961737
100	0x3da996f4	0.08280745
101	0xbe5f2b8d	-0.21793957
102	0xbec43dd4	-0.3832842
103	0xbf313571	-0.6922217
104	0x3ee819ae	0.45332092
105	0xbd9410cf	-0.072297685
106	0xbe0664fe	-0.13124463
107	0x3ea7433a	0.32668477
108	0x3e401474	0.18757802
109	0x3ec20d4d	0.37900773
110	0x3ec364ab	0.3816274
111	0xbda4313c	-0.08017203
112	0x3eb2877c	0.3486899
113	0x3e1d9d5e	0.15392062
114	0xbf347517	-0.70491165
115	0x3e42d828	0.1902777
116	0x3d814ff5	0.06314079
117	0xbeca54d1	-0.39517835
118	0xbf03e7a7	-0.5152535
119	0x3f1af228	0.6052575
120	0xbf088d84	-0.53340936
121	0xbf117a87	-0.56827587
122	0x3f09c73f	0.5381965
123	0xbee6148f	-0.4493756
124	0xbec43943	-0.38324937
125	0x3dd3101f	0.10305809
126	0x3ec46576	0.3835866
127	0x3f0bed52	0.54659
128	0x3db40500	0.08790016
129	0x3e0cb6c9	0.13741602
130	0xbcce530a	-0.02518608
131	0xbe8cf280	-0.27528763
132	0xbec63877	-0.38714954
133	0xbeb70743	-0.35747728
134	0x3eb570c4	0.35437596
135	0x3f5d484f	0.8643846
136	0x3ec94f1e	0.39318174
137	0x3e688ad6	0.22709212
138	0x3e6cd238	0.23127067
139	0x3a891240	0.001045771
140	0x3f10f658	0.5662589
141	0x3e4188f5	0.18899901
142	0xbea3ba26	-0.31977957
143	0xbe737820	-0.23776293
144	0x3e59314b	0.2121021
145	0x3d91404e	0.07092343
146	0xbea0be72	-0.31395298
147	0x3eaffc3c	0.34372127
148	0x3ec0e8c6	0.37677592
149	0xbf22e512	-0.63630784
150	0xbe20d713	-0.15707044
151	0x3eca3aa5	0.39497867
152	0x3e47cd01	0.19511797
153	0x3d8df523	0.06931522
154	0xbd57d429	-0.052692566
155	0x3f13a5d5	0.57674915
156	0xbf33f325	-0.70292884
157	0x3e216607	0.15761577
158	0x3ef45c98	0.47726893
159	0x3e87b0b3	0.26501998
160	0x3e91bde1	0.2846518
161	0x3f0063be	0.50152194
162	0x3f2933c8	0.66094637
163	0xbf24d7d9	-0.6439186
164	0x3e7e96f8	0.24862278
165	0x3f2591c9	0.64675575
166	0x3f9b64a7	1.2140092
167	0x3f0d6db5	0.55245525
168	0x3f0e0b2f	0.55485815
169	0xbed54599	-0.4165466
170	0x3ef53eae	0.47899383
171	0x3def0840	0.116714954
172	0x3f24da39	0.6439548
173	0x3e8e9f7c	0.27856052
174	0x3ea92ac3	0.33040437
175	0xbeec55dc	-0.46159256
176	0x3ebd8f2f	0.37023303
177	0x3f100af3	0.5626671
178	0x3e544b14	0.20731765
179	0xbdc4f67c	-0.09617326
180	0x3e949c1c	0.29025352
181	0x3ed1f45e	0.4100675
182	0x3ee379f3	0.44428977
183	0x3e79cb14	0.24393874
184	0x3e668111	0.22510172
185	0xbe643cc1	-0.22288801
186	0x3dd88944	0.10573056
187	0xbe298ecd	-0.1655838
188	0x3ed4e4a7	0.41580698
189	0xbe24b778	-0.16085613
190	0x3edfa2cc	0.43678892
191	0xbf1724a0	-0.5904026
192	0x3e44e37d	0.19227405
193	0x3f7ded16	0.9918989
194	0x3d3cfe38	0.04614088
195	0x3d301ad3	0.04299433
196	0x3e72e1f3	0.23719005
197	0xbe05d294	-0.1306861
198	0xbe8ea9af	-0.27863833
199	0xbc85507a	-0.016273726
200	0xbe0bc991	-0.1365111
201	0xbe8b3d88	-0.27195382
202	0x3edb1bc0	0.4279461
203	0x3ea195cb	0.31559595
204	0x3d4a3265	0.049364466
205	0x3d181793	0.037131857
206	0x3f102602	0.56307995
207	0x3ef15ad9	0.47139624
208	0xbea76644	-0.3269521
209	0xbdc1df2f	-0.09466397
210	0x3e522c8f	0.2052481
211	0xbe1baa85	-0.15201767
212	0xbdde72a6	-0.10861711
213	0x3f16da62	0.58926976
214	0xbcb9b018	-0.022666976
215	0x3eaa0760	0.33208752
216	0x3bd27aa1	0.00642331
217	0xbd9eb66a	-0.077496365
218	0xbd28feab	-0.041258495
219	0x3f04386c	0.5164859
220	0x3ed297a8	0.4113133
221	0x3ea12a3a	0.3147753
222	0x3f214436	0.62994707
223	0x3f3c3db6	0.73531663
224	0xbea32569	-0.3186448
225	0x3e74e979	0.23917188
226	0xbf1fdf9d	-0.6245058
227	0xbf00d5d5	-0.5032628
228	0x3e3f0aed	0.18656512
229	0xbe86ac37	-0.26303264
230	0x3c085edd	0.008323398
231	0xbeb00fa8	-0.34386945
232	0xbd82b8a2	-0.06382872
233	0x3ccebbdb	0.02523606
234	0x3e0e2de4	0.13884693
235	0xbeef7f09	-0.46776608
236	0x3f0a505c	0.5402887
237	0xbd6b21e0	-0.057405353
238	0xbde74aac	-0.112935394
239	0xbebbea6e	-0.36702293
240	0x3eccef5a	0.4002636
241	0x3f0f6bfd	0.5602415
242	0x3ed62758	0.41826892
243	0xbe1951a1	-0.14972545
244	0x3f14e27e	0.581581
245	0x3e285004	0.16436774
246	0xbebb4938	-0.365793
247	0x3e565c3b	0.2093362
248	0xbe1058ee	-0.14096424
249	0x3e9a09d4	0.30085623
250	0x3e9007f7	0.28131077
251	0xbda91216	-0.08255403
252	0xbf1f009a	-0.6211029
253	0x3eeb5ae2	0.45967776
254	0xbf2b7ba6	-0.6698555
255	0x3f0b254b	0.5435378

l1.bias f4 [8]
0	0x3f43e7c0	0.765255
1	0x3f4682e6	0.77543485
2	0x3f24fcae	0.6444806
3	0x3f7891ea	0.9709765
4	0x3f4b1e12	0.7934276
5	0x3f8b04cf	1.0860842
6	0x3f0b5d21	0.5443898
7	0x3f2c3c25	0.67279273

l2.weight f4 [8, 8]
0	0xbfab2166	-1.3369567
1	0x3fc35772	1.5261061
2	0x3f948516	1.1603115
3	0x3fac4ab8	1.3460302
4	0x3c2ba348	0.010475941
5	0x3df6bef3	0.120481394
6	0xbc75c956	-0.0150016155
7	0x3fcfe38d	1.6241318
8	0x3e889b5b	0.26681027
9	0x3f34ca8f	0.7062158
10	0x3f807dc9	1.0038387
11	0x3e04917b	0.12946121
12	0x3cd28b52	0.025701199
13	0x3fd2b690	1.6461964
14	0xbf58fa93	-0.84757346
15	0xbf9a99ac	-1.2078147
16	0x3f620583	0.8828966
17	0x3fedb607	1.8571175
18	0xbebd9c19	-0.37033156
19	0x3f067f59	0.5253807
20	0xbfa51b0e	-1.2898881
21	0x3fcd1fec	1.6025367
22	0xbed45cc8	-0.41477036
23	0xbeb109b3	-0.34577712
24	0xbd9272b0	-0.07150781
25	0xbe4de623	-0.20107321
26	0xbd9bbf24	-0.076048166
27	0xbe810b36	-0.25203866
28	0x3b11fc00	0.0022275448
29	0xbd667780	-0.056266308
30	0xbe92b530	-0.2865386
31	0xbe23479c	-0.15945286
32	0x3fa49777	1.2858723
33	0xbfcb5602	-1.5885623
34	0xbf336407	-0.70074505
35	0x3fe782e4	1.808682
36	0x3ff1778e	1.886461
37	0x3f66167f	0.89878076
38	0x3eeb0c47	0.45907804
39	0xbcf232d1	-0.029565247
40	0x3fce3e2b	1.6112722
41	0x3d9bf351	0.07614768
42	0x3faadeb6	1.3349216
43	0xbf1e6035	-0.6186555
44	0x3fa24af3	1.2679123
45	0x3e351bb5	0.1768635
46	0xbe1caf18	-0.15301168
47	0xbebffbd1	-0.37496808
48	0x3f020a98	0.50797415
49	0x3f9a19a2	1.2039073
50	0xbf8be303	-1.0928653
51	0x3f74cd19	0.95625454
52	0xbf17e047	-0.59326595
53	0x3e885801	0.26629642
54	0x3f89bc54	1.0760598
55	0xbfa3f511	-1.2809163
56	0x3eb6b61c	0.35685813
57	0x3f7ecaa9	0.99527985
58	0xbf758db5	-0.9591935
59	0x3f8f6d19	1.1205169
60	0x3e8a1e51	0.26976255
61	0xbf61d7b8	-0.88219786
62	0x3fec7a91	1.8474904
63	0x3e330e7e	0.17485997

l2.bias f4 [8]
0	0x3ef2694f	0.4734597
1	0x3ec045ff	0.37553403
2	0x3f1dd5e5	0.616545
3	0xbe32842e	-0.17433235
4	0x3f0ff05d	0.5622614
5	0x3edc30f6	0.43006104
6	0x3d549b69	0.051906023
7	0x3ec9edc9	0.39439228

l3.weight f4 [11, 8]
0	0x3d551d06	0.052029632
1	0xbfbdbe4b	-1.4823698
2	0xbd407282	-0.046984203
3	0x3d4e6720	0.050391316
4	0xbe933fa7	-0.287595
5	0xbffe3638	-1.9860296
6	0x3f2851e1	0.6574994
7	0x3f2c4991	0.67299753
8	0x3f40f7a4	0.7537787
9	0x3ef9895e	0.48737615
10	0xc005bde7	-2.0897157
11	0xbeadafc2	-0.33923155
12	0x3ddc36cc	0.10752639
13	0x3ee3c670	0.44487333
14	0xbf927d69	-1.1444522
15	0xbff006bf	-1.8752059
16	0xbe78d5fb	-0.24300377
17	0x3efbd976	0.49189347
18	0x3f1a6c27	0.6032128
19	0xbd9997e8	-0.07499677
20	0xbe1fb3c3	-0.15595917
21	0xbff7e878	-1.9367819
22	0x3ec9d3b8	0.3941934
23	0xbe87a264	-0.26491082
24	0x3f2d6033	0.67724913
25	0xbf0ffdb3	-0.5624649
26	0xbfd82d81	-1.6888887
27	0xbe9cd140	-0.30628395
28	0xbf9282a7	-1.1446122
29	0xbe844731	-0.25835565
30	0xbf900b2b	-1.1253408
31	0x3f2d85c5	0.6778224
32	0x3dc218fb	0.09477421
33	0x3f1c58bf	0.61072916
34	0x3f088aca	0.53336775
35	0x3e1aae62	0.15105584
36	0xbe20302a	-0.15643373
37	0xbd9cea72	-0.076619044
38	0xc00fa6d0	-2.2445564
39	0xbfac0682	-1.3439486
40	0xbe9f07a2	-0.3106051
41	0xbfa80ecb	-1.3129514
42	0xbf57202c	-0.84033465
43	0x3de56a8c	0.11201963
44	0x3f383c0a	0.7196661
45	0x3eb05dcb	0.34446558
46	0xbfb510b1	-1.4145719
47	0x3e825325	0.2545406
48	0xbf81fed5	-1.0155894
49	0xbdef5720	-0.1168654
50	0x3e2d892a	0.16946855
51	0xbdd667d0	-0.104690194
52	0xbe9d3b0b	-0.3070911
53	0x3ec7e33e	0.3904056
54	0x3f273b20	0.6532459
55	0x3ec6f916	0.38861912
56	0xbfde2f03	-1.7358097
57	0x3f27b718	0.65513754
58	0xbeb2b1b5	-0.34901205
59	0xbe2101bd	-0.1572332
60	0x3ef22fbd	0.47302046
61	0x3f739114	0.95143247
62	0xbf247cbd	-0.64252836
63	0xbf9896ac	-1.1920981
64	0xbbbbd0ad	-0.005731663
65	0xbf3d65fb	-0.73983735
66	0xbfe813dd	-1.8131062
67	0xbe114336	-0.14185795
68	0x3f2dcc6d	0.67890054
69	0xc005729c	-2.0851202
70	0x3f0bf52d	0.54670984
71	0x3f1f86a5	0.62314826
72	0xbec31b15	-0.381066
73	0x3f1eea25	0.62076026
74	0x3f2b07c8	0.6680875
75	0x3e413266	0.18866882
76	0xbfd03df2	-1.6268904
77	0x3de786e9	0.11305029
78	0x3f099df7	0.5375666
79	0xbfaf35e2	-1.3688319
80	0x3f65b2f6	0.897262
81	0xbea88438	-0.32913375
82	0x3f258fdd	0.6467264
83	0xbe18b8e8	-0.14914286
84	0xbfb8202b	-1.4384817
85	0xbfb33c72	-1.4002821
86	0xbf7345bd	-0.9502829
87	0xbed5e687	-0.4177744

l3.bias f4 [11]
0	0x3ec2fc96	0.38083333
1	0xbdcd79ec	-0.100330204
2	0xbeebf40a	-0.46084625
3	0x3dc44bd6	0.09584777
4	0x3d0ebf4b	0.0348504
5	0x3e38bb5c	0.18040222
6	0xbef7d1c3	-0.48402223
7	0x3ddeee76	0.108853266
8	0xbf1010b1	-0.5627547
9	0x3d186407	0.03720477
10	0x3d336102	0.043793686
